miao/tools/model.pth (torch, 162710 bytes, 15 tensors)

feats_mixer.weight f4 [1, 6]
0.23838903 0.061398 0.28147176 0.108320795 0.061717108 -0.22800136
00000000: 411c 743e 787c 7b3d 111d 903e 4bd7 dd3d
00000010: 14cb 7c3d 3079 69be

hidden_layer.weight f4 [128, 50]
0.07756477 0.003749527 -0.09732226 0.028582295 -0.043632384 -0.047404036 -0.008012979 -0.045263086
0.003655648 0.062138855 0.08876477 -0.005122131 0.101306304 0.02405174 0.11540685 -0.03466645
0.054002285 -0.08713396 -0.12677695 0.09620072 -0.11665519 -0.04625566 0.0012300208 0.050022304
0.023008373 0.055372227 0.06320935 0.06849633 0.04381728 -0.09787684 0.028078672 -0.07049381
-0.1130673 0.057285845 0.041061535 0.0560385 -0.05981945 -0.12596238 0.068929665 0.061789565
0.06770187 0.034431495 -0.06189392 -0.082843035 -0.07699136 0.009732171 -0.04340262 -0.024198342
0.021263802 -0.03395319 -0.0008480823 0.018848194 0.005722596 -0.03659287 0.06380517 0.003606403
-0.043803442 -0.036711257 0.0905479 0.042100046 -0.007561736 0.062342074 0.061358746 0.07411069
-0.03525013 0.029873261 -0.014879021 -0.07036696 0.015528154 0.012714323 -0.06752531 -0.039037537
-0.010612439 0.051874064 -0.047594793 0.058783192 0.06303233 -0.024755286 -0.07587431 -0.08202054
-0.025676245 -0.036796413 -0.0368713 -0.029685471 -0.0030345349 -0.031351827 0.049949627 -0.018734217
0.078176685 0.07156507 0.07219662 -0.047974076 -0.007131282 0.010804124 -0.028282795 -0.004887877
0.08734293 -0.02453012 -0.093855225 -0.10264543 -0.13182735 -0.0011683088 0.06880887 0.02014519
-0.09587818 0.084376685 0.013780804 -0.117509864 -0.08243515 0.08773765 0.08397576 0.1039743
-0.011678806 0.07616322 0.044326663 0.061837602 -0.07026125 0.035395503 -0.021359554 0.07741571
-0.06297862 -0.110207334 -0.08325366 0.117016695 0.06165862 0.06634225 0.03448884 0.09111939
-0.01835823 0.030023467 -0.10922087 -0.09592317 -0.03045256 0.022021497 -0.026589794 -0.071393535
0.0007679784 0.0034490293 -0.054682612 0.119987436 -0.018747918 0.021093555 -0.07818895 -0.061624613
-0.0660638 0.03598526 0.057938065 0.042872287 -0.023670439 -0.097964145 -0.1326552 0.12404069
-0.037842516 0.060405552 -0.052954193 0.011263971 -0.002643885 0.03837465 0.008633272 0.075493544
0.09500375 -0.092356354 -0.08108428 0.07135882 -0.0013852861 -0.033771746 -0.11075561 0.0076038493
0.032049462 0.03976571 -0.0034302818 0.028581712 -0.11445515 0.017249 -0.07577421 -0.023474108
-0.056850273 -0.11462204 0.051237684 -0.07056952 -0.080838114 0.10992975 -0.0044700857 -0.0991855
0.045453444 0.07240693 0.069479555 0.12509876 -0.015872503 0.0552133 0.03032872 0.034980502
0.052855484 0.031219471 0.025538053 -0.0559627 -0.0135304285 0.0057247337 0.11723814 -0.07799905
0.040705685 0.09407878 -0.028136201 -0.055429466 -0.08275693 -0.07273351 0.06549502 0.053051353
0.08432897 -0.03813073 0.070859514 -0.08485305 -0.020828824 -0.041512627 0.06965078 0.063034594
-0.047039274 -0.08128198 -0.050446004 -0.08558455 -0.06237279 0.0988009 0.07311491 -0.056070574
0.06838325 0.087357074 0.00052675075 0.08784001 0.068138845 -0.044380438 0.014047487 -0.04994789
0.024193168 0.050024573 -0.027882773 -0.013267437 -0.099231824 0.05294425 -0.07742259 0.03898972
0.005607442 -0.08755255 0.05309662 -0.055659976 -0.04576021 0.0035318872 -0.00916797 0.01718611
-0.011880878 0.010207827 0.08520503 -0.036941826 -0.009941361 0.10316508 -0.10967636 0.06812114
00000000: 47da 9e3d a0ba 753b e550 c7bd 6b25 ea3c
00000010: dfb7 32bd bc2a 42bd df48 03bc c965 39bd
00000020: 9993 6f3b 5085 7e3d 4eca b53d 8dd7 a7bb
00000030: ae79 cf3d 2808 c53c 6d5a ec3d 68fe 0dbd
00000040: 8031 5d3d 4a73 b2bd d1d1 01be e204 c53d
00000050: ebe8 eebd 9376 3dbd a638 a13a 30e4 4c3d
00000060: 0e7c bc3c fdcd 623d e773 813d ce47 8c3d
00000070: c079 333d a773 c8bd 3e05 e63c 0f5f 90bd
00000080: d48f e7bd 90a4 6a3d 2430 283d a088 653d
00000090: 3d05 75bd 48fc 00be ff2a 8d3d 0e17 7d3d
000000a0: 47a7 8a3d 0a08 0d3d 7b84 7dbd 9ca9 a9bd
000000b0: a5ad 9dbd af73 1f3c f2c6 31bd 9a3b c6bc
000000c0: 6d31 ae3c 8012 0bbd d751 5eba 8767 9a3c
000000d0: 9d84 bb3b 68e2 15bd 49ac 823d 6759 6c3b
000000e0: 3d6b 33bd 8b5e 16bd 2d71 b93d 1971 2c3d
000000f0: 70c8 f7bb 675a 7f3d 4f53 7b3d 58c7 973d
00000100: 7162 10bd c5b8 f43c 23c7 73bc 8d1c 90bd
00000110: cc69 7e3c bc4f 503c b64a 8abd d3e5 1fbd
00000120: ccdf 2dbc e679 543d c2f2 42bd a5c6 703d
00000130: 1817 813d 99cb cabc fe63 9bbd 63fa a7bd
00000140: fd56 d2bc d6b7 16bd 5c06 17bd f22e f3bc
00000150: 0cdf 46bb c66a 00bd fb97 4c3d 8078 99bc
00000160: 191b a03d b590 923d d2db 933d 7780 44bd
00000170: 87ad e9bb c803 313c 52b1 e7bc 7c2a a0bb
00000180: dae0 b23d 64f3 c8bc 2b37 c0bd c437 d2bd
00000190: c0fd 06be f021 99ba aaeb 8c3d 8707 a53c
000001a0: c75b c4bd afcd ac3d e2c8 613c 03a9 f0bd
000001b0: c3d3 a8bd ccaf b33d 7cfb ab3d 7af0 d43d
000001c0: 7658 3fbc 76fb 9b3d e08f 353d 6d49 7d3d
000001d0: 21e5 8fbd e0fa 103d 3bfa aebc 218c 9e3d
000001e0: effa 80bd 62b4 e1bd e580 aabd 73a6 ef3d
000001f0: c08d 7c3d 72de 873d 2b44 0d3d ce9c ba3d
00000200: 0064 96bc c6f3 f53c 31af dfbd 5e73 c4bd
00000210: a677 f9bc 6d66 b43c d7d2 d9bc c636 92bd
00000220: 2852 493a 1c09 623b e0fa 5fbd f9bb f53d
00000230: 3c95 99bc 64cc ac3c 8721 a0bd 176a 7cbd
00000240: 754c 87bd 4865 133d 7750 6d3d da9a 2f3d
00000250: 82e8 c1bc 6da1 c8bd c4d6 07be 0c09 fe3d
00000260: c100 1bbd d06b 773d 7fe6 58bd 858c 383c
00000270: 0845 2dbb bd2e 1d3d 9172 0d3c 5c9c 9a3d
00000280: 5391 c23d 5425 bdbd 840f a6bd 9324 923d
00000290: 7d92 b5ba 3e54 0abd d6d3 e2bd b629 f93b
000002a0: 4c46 033d 5ee1 223d 94ce 60bb 3224 ea3c
000002b0: 7667 eabd c64d 8d3c 822f 9bbd c64c c0bc
000002c0: d5db 68bd f6be eabd 9bde 513d c186 90bd
000002d0: 748e a5bd d922 e13d cc79 92bb c421 cbbd
000002e0: 642d 3a3d 164a 943d 4c4b 8e3d e419 003e
000002f0: 0d07 82bc 5727 623d f073 f83c b747 0f3d
00000300: fe7e 583d fabf ff3c 2e35 d13c 2539 65bd
00000310: bbae 5dbc 8c96 bb3b 8d1a f03d f7bd 9fbd
00000320: 01bb 263d 60ac c03d e47d e6bc 020a 63bd
00000330: 777c a9bd 4ef5 94bd 4122 863d 604c 593d
00000340: abb4 ac3d f82e 1cbd cb1e 913d 70c7 adbd
00000350: 36a1 aabc 2509 2abd 11a5 8e3d 4818 813d
00000360: 41ac 40bd 2b77 a6bd 78a0 4ebd f446 afbd
00000370: 9c7a 7fbd 2058 ca3d 45bd 953d 42aa 65bd
00000380: 840c 8c3d 44e8 b23d a515 0a3a 77e5 b33d
00000390: 618c 8b3d 43c8 35bd 6e27 663c 2996 4cbd
000003a0: c030 c63c 91e6 4c3d 6a6a e4bc aa5f 59bc
000003b0: 0e3a cbbd 12dc 583d bc8f 9ebd afb3 1f3d
000003c0: a2be b73b c04e b3bd d77b 593d b7fb 63bd
000003d0: 0f6f 3bbd 3c77 673b 4135 16bc e3c9 8c3c
000003e0: 04a8 42bc bb3e 273c fa7f ae3d 5050 17bd
000003f0: 17e1 22bc 3748 d33d 009e e0bd 1983 8b3d

hidden_layer.bias f4 [128]
-0.0626833 -0.01821303 -0.022914203 -0.04227827 -0.0073019313 -0.029596284 -0.025007062 -0.0021410198
-0.03830968 0.002531966 -0.0010657802 -0.028768847 0.06729617 0.020917619 -0.017465493 0.020428255
-0.008656081 -0.028264029 -0.004040633 0.07919125 -0.01631008 -0.007704122 0.0069491672 -0.0013972234
0.018801533 -0.021965228 0.014629104 0.0009646296 -0.04325546 0.00907564 0.038349774 -0.014864663
0.0025247592 0.0057385466 -0.023759555 0.0062265317 -0.028112344 -0.02301703 -0.007198792 0.0064513083
0.0031969908 0.03698002 0.080123305 -0.022214176 0.003473318 0.07268689 0.04562594 -0.024898943
-0.09176921 -0.010985775 -0.028125402 -0.0044281175 0.02672201 -0.021037757 0.011804431 -0.025788592
-0.040305797 0.039245915 -0.004384904 -0.06681383 0.03952259 0.002230759 0.019879429 0.063779496
-0.022875285 0.036395468 -0.08177004 0.007756108 0.034204647 0.02678375 -0.018663578 -0.0111525515
-0.034615334 -0.004049874 -0.064829044 -0.0024253011 -0.026575157 0.0013537866 0.059362993 -5.108488e-05
-0.0007162831 -0.001783684 -0.04176395 0.052049574 -0.0500394 0.021698143 0.006928781 0.012940632
0.030634636 0.0056544114 0.0076419213 -0.0107411705 0.005800381 0.026841143 -0.0007271749 -0.0042050923
-0.0075344 0.022294492 -0.051606603 -0.011044171 0.00806973 -0.017443238 0.016580747 -0.0023447177
-0.0027445895 -0.018347371 0.05026973 -0.003128929 -0.016122466 0.0013925537 0.03592999 0.014756949
0.0034133156 0.022492498 -0.060230978 -0.07290961 0.03887586 0.037700392 -0.0043286504 0.028813204
0.025184218 -0.05918337 -0.005702819 -0.03726841 0.0042676236 -0.003703569 -0.016648363 -0.033588294
00000000: 1a60 80bd 7e33 95bc 91b6 bbbc fb2b 2dbd
00000010: 0a45 efbb e873 f2bc 9cdb ccbc 5a50 0cbb
00000020: 9cea 1cbd 57ef 253b a6b1 8bba a5ac ebbc
00000030: 93d2 893d 6d5b ab3c cb13 8fbc 2859 a73c
00000040: 3cd2 0dbc f789 e7bc 4967 84bb 062f a23d
00000050: b89c 85bc dc72 fcbb d7b5 e33b 0a23 b7ba
00000060: ac05 9a3c 6cf0 b3bc e9ae 6f3c 32df 7c3a
00000070: a32c 31bd feb1 143c a714 1d3d ea8a 73bc
00000080: 6e76 253b 6b0a bc3b 66a3 c2bc ef07 cc3b
00000090: dc4b e6bc 368e bcbc d8e3 ebbb 7f65 d33b
000000a0: 9b84 513b 5d78 173d b017 a43d 81fa b5bc
000000b0: 9ba0 633b dddc 943d 44e2 3a3d def8 cbbc
000000c0: 7ff1 bbbd aefd 33bc 3e67 e6bc be19 91bb
000000d0: 1ee8 da3c 6057 acbc 5f67 413c 9942 d3bc
000000e0: b117 25bd 53c0 203d 3eaf 8fbb b0d5 88bd
000000f0: 70e2 213d ed31 123b 2fda a23c d39e 823d
00000100: f364 bbbc 6a13 153d 0d77 a7bd f326 fe3b
00000110: 2c1a 0c3d 9869 db3c 5ce4 98bc 31b9 36bc
00000120: cfc8 0dbd ceb4 84bb 17c5 84bd cdf1 1ebb
00000130: 25b4 d9bc 8a71 b13a 9c26 733d f943 56b8
00000140: f2c4 3bba 81ca e9ba ad10 2bbd ef31 553d
00000150: 1df6 4cbd 4ec0 b13c d40a e33b f204 543c
00000160: 7df5 fa3c a448 b93b 1569 fa3b bcfb 2fbc
00000170: 1f11 be3b f5e1 db3c e29f 3eba dfca 89bb
00000180: 21e3 f6bb f0a2 b63c 7261 53bd 9cf2 34bc
00000190: e736 043c 1fe5 8ebc 59d4 873c d6a9 19bb
000001a0: 92de 33bb 3a4d 96bc a2e7 4d3d b80e 4dbb
000001b0: 4313 84bc 5986 b63a 532b 133d 21c7 713c
000001c0: efb1 5f3b 3042 b83c c2b4 76bd a251 95bd
000001d0: 4b3c 1f3d ba6b 1a3d 5ad7 8dbb ab09 ec3c
000001e0: 224f ce3c 436a 72bd b7de babb c3a6 18bd
000001f0: 6cd7 8b3b 94b7 72bb 2662 88bc e193 09bd

output_layer.weight f4 [50, 128]
0.002257992 0.00020435383 -0.0009414208 -0.0033263804 0.0039168126 -0.00035040113 0.0015538225 -0.0011490978
-0.0008940737 -0.002649371 0.0029687614 -0.0026213704 -0.0024149262 -0.0014678066 0.0021207456 0.0013841742
-0.0054382565 0.0019707037 0.0031305032 0.0013975082 -1.817202e-05 -0.004383168 -0.0024427033 -0.002917711
-0.0013343845 0.0007799579 0.00044636684 0.0015563677 0.0026051244 -0.0023293747 0.0011021998 0.0011106866
-0.0010148272 0.0028670125 0.0011973178 -0.00235894 -0.00074618176 0.0011552031 -0.0009846216 0.001244871
0.00028285047 -0.0030771883 0.00081833743 0.0030058185 0.0007937873 -0.00033602433 -0.0054247295 0.006420239
-0.000624388 -0.003314989 -0.0011622006 -0.0022699982 0.001640663 0.0021294164 0.0031114756 -0.000849871
0.002738855 -0.0036894113 -0.00049969845 -0.00047321204 0.0005497351 0.0006007854 0.0077993763 -0.0011556238
0.00022811776 -0.0015842506 0.0014492084 -2.082454e-05 0.004023622 -0.0018444475 0.0045553795 0.0029613015
-0.002865477 -0.00056025037 -0.0051829377 -0.0037091926 -5.9235907e-05 -0.0034182563 0.0006333989 -0.00080693804
0.0033184192 0.0010783866 0.0014981325 0.0030111666 6.8226174e-05 0.0016433814 0.0022575813 -0.007637617
0.0012999076 -0.0050558327 -0.002638392 -0.0035387205 0.0007284354 0.0015002112 -0.0038710414 0.0012991943
-0.0030889984 0.00097573776 -7.064505e-05 0.0015155872 0.00026092026 -0.0004175824 0.0070243427 -0.0060788356
0.0024674865 0.0027434186 0.00018493863 -0.004300655 -0.0019696997 -0.008501252 -1.1281591e-05 -0.0045624436
0.002223821 0.0014272358 -0.0008210349 -0.0016722749 -0.0025268819 -0.004179012 -0.0044057923 -0.0003974887
-0.0014852021 0.0018145182 -0.0024104312 -0.0013521885 0.00065336446 -0.002986269 -0.0025147384 0.00046309415
0.0018893508 0.002258187 0.0031664514 -0.0018028418 0.00035995594 -0.001497574 -0.002535247 0.00016342456
0.00029260427 -0.0036006921 0.0020733797 0.00039810163 -0.0010621594 0.00062079594 0.002897486 0.0012324301
-0.005296239 -6.462856e-05 0.00042019194 0.0023780547 -0.0005513778 -0.004353996 -0.0023364306 -0.009237003
-0.0015512581 -0.0020592115 0.00012547312 0.0033032496 0.0011410565 -0.0051189302 -0.002246814 -0.00335393
0.0030629712 0.0062075662 -0.0009797564 -0.0014837674 -1.3493729e-05 -0.00023390235 0.0004198344 0.0008986774
0.0013214923 -0.004644499 0.002733282 0.005947483 0.0022079905 -0.001927323 -0.0052252454 0.0065247933
0.00057691254 -0.0027366779 0.0016701495 -0.00052669924 0.0014699296 0.005965631 -0.006149172 -0.002009002
0.001944359 -0.0042389403 0.005691261 0.00083860394 -0.0006822595 0.0028369469 0.006838049 -0.0014711138
-0.00076269434 -0.0018586825 0.0008033869 1.6281017e-05 0.0032001196 0.00027750066 0.0017068461 0.0015828001
8.698899e-05 -0.0016465432 -0.003928334 -0.0031288166 -0.002057593 -0.0011296439 0.0018069842 -0.0011908717
0.0025802283 0.0009021424 0.0016201017 0.0018342115 0.0009371809 0.006009095 0.0065415497 -0.007838354
0.0006182456 0.0011989062 -0.0013711348 -0.0035427825 0.0027999736 0.002213301 0.0029072794 0.0027915956
-0.0036214879 -0.0044336827 0.001627745 0.0023899027 -0.0025702692 0.004234687 0.006308998 -0.00252561
-0.0037088394 0.0016500208 -0.0010178285 -0.002698373 -0.0036104813 -0.0012136241 0.00028655588 -0.0034046352
2.66604e-05 0.00074825296 -0.0035212373 0.0012515264 -0.0035343703 -0.0045235287 -6.348763e-05 0.0024660404
-0.0018513369 0.0012703012 -0.0053564887 -0.0013220417 0.0010367787 -0.0026157764 -0.0060534673 -0.00036850898
00000000: d2fa 133b d047 5639 aec9 76ba 67ff 59bb
00000010: 9b58 803b 0bb6 b7b9 a2a9 cb3a 539d 96ba
00000020: 4560 6aba 12a1 2dbb 8d8f 423b 4ccb 2bbb
00000030: bd43 1ebb 6b63 c0ba 35fc 0a3b 2e6d b53a
00000040: 6733 b2bb ec26 013b 2129 4d3b 982c b73a
00000050: 1e70 98b7 aea0 8fbb c315 20bb 1137 3fbb
00000060: 84e6 aeba 1776 4c3a 5806 ea39 09ff cb3a
00000070: bcba 2a3b 6ca8 18bb b077 903a 7594 913a
00000080: f303 85ba 7de4 3b3b 52ef 9c3a 7298 1abb
00000090: 699b 43ba 2f6a 973a 6b0e 81ba f02a a33a
000000a0: 8c4b 9439 a7aa 49bb b285 563a 44fd 443b
000000b0: 2a16 503a 6c2c b0b9 eec1 b1bb de60 d23b
000000c0: f8ad 23ba 4940 59bb fb54 98ba 40c4 14bb
000000d0: 840b d73a ae8d 0b3b e6e9 4b3b e1c9 5eba
000000e0: 5d7e 333b 0dca 71bb 32fe 02ba 7219 f8b9
000000f0: 191c 103a 077e 1d3a e991 ff3b 4d78 97ba
00000100: e532 6f39 a1a6 cfba 5df3 bd3a 5cb0 aeb7
00000110: 96d8 833b 63c1 f1ba 4b45 953b 6512 423b
00000120: baca 3bbb c4dd 12ba a2d5 a9bb ed15 73bb
00000130: 1274 78b8 d304 60bb ae0a 263a b288 53ba
00000140: d679 593b a658 8d3a fc5c c43a fe56 453b
00000150: a614 8f38 bb66 d73a eef3 133b fa44 fabb
00000160: a961 aa3a 66ab a5bb dfe8 2cbb e1e9 67bb
00000170: 79f4 3e3a bca2 c43a 4cb1 7dbb ba49 aa3a
00000180: cb70 4abb a7c8 7f3a 4627 94b8 aba6 c63a
00000190: 20cc 8839 f6ee dab9 752c e63b f830 c7bb
000001a0: 8eb5 213b edca 333b 16ec 4139 82ec 8cbb
000001b0: 1416 01bb d648 0bbc 1046 3db7 8d80 95bb
000001c0: 86bd 113b 1612 bb3a b83a 57ba 3c30 dbba
000001d0: 0b9a 25bb 18f0 88bb 775e 90bb 0866 d0b9
000001e0: 1dab c2ba 21d5 ed3a 53f8 1dbb eb3b b1ba
000001f0: 8c46 2b3a 48b5 43bb 4fce 24bb 72cb f239
00000200: 18a4 f73a 17fe 133b 3d84 4f3b 554d ecba
00000210: 78b8 bc39 3f4a c4ba 6326 26bb f25c 2b39
00000220: ae68 9939 97f9 6bbb 8ae1 073b 4cb8 d039
00000230: 2838 8bba e9bc 223a c0e3 3d3b 7e89 a13a
00000240: 138c adbb 3289 87b8 354d dc39 23d9 1b3b
00000250: 568a 10ba f7ab 8ebb cd1e 19bb cc56 17bc
00000260: 9653 cbba d6f3 06bb 6f91 0339 557b 583b
00000270: 818f 953a b3bc a7bb 493f 13bb 9ccd 5bbb
00000280: 21bc 483b d768 cb3b 2b6b 80ba f97a c2ba
00000290: 2063 62b7 af43 75b9 381d dc39 3895 6b3a
000002a0: ec35 ad3a e230 98bb dd20 333b 1ae3 c23b
000002b0: efb3 103b 3b9e fcba 8938 abbb efcd d53b
000002c0: f23b 173a d659 33bb ebe8 da3a 3012 0aba
000002d0: a7aa c03a 577b c33b fe7e c9bb 76a9 03bb
000002e0: ddd9 fe3a cfe6 8abb c27d ba3b c2d5 5b3a
000002f0: a9d9 32ba 12ec 393b b611 e03b 63d2 c0ba
00000300: 8def 47ba 099f f3ba 629a 523a 3893 8837
00000310: 19b9 513b 827d 9139 40b8 df3a f575 cf3a
00000320: dc6d b638 d2d0 d7ba 41b9 80bb d50c 4dbb
00000330: afd8 06bb 8f10 94ba 54d8 ec3a 0617 9cba
00000340: 0c19 293b c07d 6c3a 9859 d43a ed69 f03a
00000350: 25ad 753a f1e7 c43b 7f5a d63b 716c 00bc
00000360: c311 223a 9e24 9d3a a6b7 b3ba 072e 68bb
00000370: c37f 373b 070d 113b 0e88 3e3b 34f3 363b
00000380: 7c56 6dbb 6d48 91bb 0f5a d53a ea9f 1c3b
00000390: f671 28bb 21c3 8a3b b6bb ce3b b484 25bb
000003a0: 0010 73bb 8345 d83a a868 85ba 30d7 30bb
000003b0: d39d 6cbb 7812 9fba e13c 9639 4d20 5fbb
000003c0: c6a4 df37 6826 443a 8fc4 66bb 420a a43a
000003d0: e5a0 67bb 1c3a 94bb a924 85b8 4b9d 213b
000003e0: 8fa8 f2ba 3c80 a63a 7c85 afbb 5c48 adba
000003f0: 85e4 873a 726d 2bbb 2a5c c6bb 7034 c1b9

output_layer.bias f4 [50]
0.00089599437 0.0022186209 0.002553415 -0.00089391554 0.00015931884 -0.00028953463 -0.00024183026 -0.0005802685
-0.0006883395 8.021361e-05 -0.00010481426 -0.0005524647 0.0004222689 -0.0011867903 -0.00047113284 -0.0008467872
-0.0006144404 -0.00044452556 0.0003355852 0.0006281518 0.00021415854 -0.00018058896 -0.0009421448 0.00012453033
9.381368e-05 -0.00052283495 -0.0001451219 0.00026817716 6.026619e-05 -0.00047024386 -0.00037359967 -0.00014706021
-0.00037303256 -0.00080849347 -0.0001735082 0.00028129114 0.00026833767 -0.00046212418 -0.0002553871 -0.0007758289
-0.00092437805 -0.00042228826 0.00011972684 -0.00065746094 0.00017182385 0.00029694202 -0.0014296856 -0.0005493107
3.010482e-05 -0.0005785648
00000000: 2ae1 6a3a 4866 113b 3257 273b a855 6aba
00000010: d30e 2739 aecc 97b9 d193 7db9 291d 18ba
00000020: af71 34ba 5b38 a838 bacf dbb8 47d3 10ba
00000030: f963 dd39 138e 9bba 6102 f7b9 edfa 5dba
00000040: 6612 21ba 360f e9b9 7cf1 af39 8eaa 243a
00000050: bf8f 6039 7b5c 3db9 44fa 76ba 5b94 0239
00000060: d6bd c438 dc0e 09ba dd2b 18b9 219a 8c39
00000070: 54c6 7c38 108b f6b9 b3df c3b9 2d34 1ab9
00000080: 9593 c3b9 14f1 53ba c1ef 35b9 427a 9339
00000090: acaf 8c39 4249 f2b9 7ae5 85b9 ff60 4bba
000000a0: f651 72ba 9266 ddb9 dc15 fb38 7559 2cba
000000b0: 9d2b 3439 e2ae 9b39 4a64 bbba 9eff 0fba
000000c0: 9c89 fc37 d4aa 17ba

exp_avg f4 [1, 6]
3.0543373e-07 -5.4070233e-09 -1.8100458e-06 -3.6721449e-06 -2.3484067e-06 -2.0741874e-05
00000000: 7efa a334 aec8 b9b1 b3f0 f2b5 f86e 76b6
00000010: 5299 1db6 d6fe adb7

exp_avg_sq f4 [1, 6]
9.015558e-08 3.336695e-11 5.4912496e-05 2.5928733e-07 2.4305214e-07 1.4762146e-06
00000000: 8e9b c133 d9bf 122e d851 6638 2e34 8b34
00000010: d57c 8234 5922 c635

exp_avg f4 [128, 50]
-3.2976646e-07 -6.3575453e-07 -3.9588045e-07 -3.6200134e-07 -4.50676e-07 -1.3365843e-07 -1.028762e-07 -1.6075526e-07
8.396594e-08 -2.2488811e-07 -3.9525307e-07 -4.5127615e-07 -7.161115e-07 -1.420687e-07 -2.6761973e-07 1.6298529e-07
-9.900801e-08 -1.350926e-07 -4.846761e-07 -2.2598364e-07 -2.7701287e-07 -2.1444843e-07 -3.940559e-07 -3.3743632e-07
-3.8290028e-07 -1.8082774e-07 -1.8539252e-07 -1.0250022e-07 -6.948362e-07 -1.4360933e-07 -2.1691358e-07 -2.473934e-07
-4.7840314e-07 -7.844016e-08 -2.7323645e-07 -5.4984815e-07 -3.7368176e-07 -3.4701682e-07 -1.6396007e-07 -1.754756e-07
-3.6780565e-07 -2.1737738e-07 1.4857305e-07 -2.9445662e-08 -2.7356467e-07 -3.955148e-07 -3.7184833e-07 -9.887303e-08
-2.000906e-07 7.297693e-08 -2.1835034e-07 -3.6591535e-07 -1.4710491e-07 -3.6059026e-07 -2.1694846e-07 -2.56928e-08
-1.525807e-07 -2.0612964e-07 -5.342717e-08 -1.9408864e-07 1.1425511e-07 -3.7290658e-08 -4.943367e-07 -1.6343763e-07
-1.1464971e-07 -1.63292e-07 -9.8413736e-08 3.9181963e-08 -2.553417e-07 -2.6084874e-07 -1.4424393e-07 -1.7086774e-07
-1.9300988e-07 -3.199389e-07 -1.878062e-07 -1.5775046e-07 -1.1434323e-08 -5.5482122e-08 -3.17923e-07 -2.630257e-07
-2.4231466e-07 -7.647474e-08 -1.5565467e-07 -1.702981e-07 -6.050225e-08 -1.7519184e-07 2.5120977e-08 -7.224683e-08
-1.6160416e-07 -1.4686123e-07 -1.7263085e-08 -3.52774e-08 5.4363266e-08 -1.1186067e-08 -5.2188824e-07 -2.3311055e-07
-4.3713246e-07 -1.1692485e-07 -1.07797035e-07 -1.2574053e-07 1.0191233e-07 8.299878e-08 6.196121e-08 7.608943e-08
8.0054136e-08 8.8954984e-08 6.255927e-08 6.14015e-08 8.999152e-08 7.673253e-08 1.138652e-07 1.2312212e-07
1.0492991e-07 7.688495e-08 1.1431075e-07 7.512901e-08 8.00754e-08 1.13437245e-07 5.1085568e-08 1.0296254e-07
4.5574385e-08 9.2319276e-08 8.1967805e-08 7.42168e-08 5.0726268e-08 9.901334e-08 1.1022741e-07 5.6564613e-08
8.325429e-08 1.17229085e-07 6.947854e-08 8.145715e-08 8.6470735e-08 9.514909e-08 1.2668059e-07 9.107933e-08
1.045853e-07 9.33881e-08 1.08220554e-07 5.379988e-08 6.850161e-08 4.1614463e-08 7.406146e-08 6.3671656e-08
2.8656839e-08 1.1369637e-07 7.611041e-08 7.206774e-08 1.5443774e-08 6.007259e-08 1.3123388e-07 1.9634601e-07
1.553983e-08 2.6210532e-08 3.144146e-08 -2.4810922e-07 -8.837142e-08 4.4611216e-08 -2.5748068e-07 -8.44937e-08
-1.6234627e-07 -8.631056e-08 1.3516369e-07 -2.5580434e-08 1.1364302e-08 -1.0983412e-07 -1.4688288e-07 -1.3964848e-07
2.597675e-08 -3.032537e-08 -6.747683e-08 4.288933e-08 -5.9577026e-08 8.1584375e-08 -8.178605e-08 -1.8871164e-07
-1.01596704e-07 -1.5545606e-07 3.1978548e-08 -1.8234192e-07 1.18681136e-07 -8.800988e-08 -5.433043e-09 -3.756637e-09
-1.3172009e-07 1.2751805e-07 -1.335434e-07 -2.524869e-07 -1.051552e-07 -1.480652e-07 -1.6995195e-07 -5.6601557e-08
-3.546607e-07 -1.5477456e-08 -2.4667136e-07 -7.1711237e-09 -9.127193e-08 -5.6575317e-08 8.7084345e-08 -9.408756e-08
1.0443753e-08 -2.9016974e-07 -4.5717766e-08 -3.6013837e-08 -3.4130753e-08 1.8852253e-07 8.900961e-08 1.0488238e-07
2.7328892e-07 1.1729755e-07 1.7900706e-07 1.0242951e-07 -3.3363617e-07 2.5530671e-08 1.107625e-07 1.8060673e-07
2.623332e-07 1.917231e-07 1.9998956e-07 -1.2909648e-07 1.0301787e-07 2.5916745e-07 2.1415875e-07 1.0891631e-07
9.2939594e-08 9.435933e-08 3.5140792e-07 1.6234515e-07 -1.5229782e-07 1.6856274e-07 9.1388515e-08 1.3296238e-07
1.187289e-08 2.5105306e-08 1.3032157e-07 1.7973612e-07 4.6221123e-07 1.3864071e-07 8.834819e-08 2.7478376e-07
4.7388085e-08 2.1823257e-07 5.582587e-07 -4.7835314e-08 -4.3194024e-07 9.982693e-09 -2.9164903e-07 2.37266e-07
1.06376454e-07 1.1499873e-07 2.4527504e-08 3.3723897e-08 4.777682e-08 1.1068905e-08 2.2573412e-08 -8.442702e-08
00000000: c20a b1b4 b8a8 2ab5 6589 d4b4 1659 c2b4
00000010: 70f4 f1b4 c083 0fb4 caec dcb3 129c 2cb4
00000020: c450 b433 c678 71b4 2b33 d4b4 ec46 f2b4
00000030: cf3a 40b5 8c8b 18b4 60ad 8fb4 0e01 2f34
00000040: 3b9e d4b3 f90d 11b4 b01a 02b5 e9a5 72b4
00000050: 5cb8 94b4 2343 66b4 a18e d3b4 e528 b5b4
00000060: 6a91 cdb4 8d29 42b4 4f10 47b4 181e dcb3
00000070: c884 3ab5 0833 1ab4 c0e8 68b4 7dd1 84b4
00000080: 9d6b 00b5 ef72 a8b3 55b1 92b4 4799 13b5
00000090: 6e9e c8b4 a14d bab4 000d 30b4 5e6a 3cb4
000000a0: d376 c5b4 3d68 69b4 7387 1f34 b2ef fcb2
000000b0: 71de 92b4 2457 d4b4 72a2 c7b4 0654 d4b3
000000c0: 7cd8 56b4 7eb7 9c33 af73 6ab4 0673 c4b4
000000d0: e4f3 1db4 2697 c1b4 57f2 68b4 11b3 dcb2
000000e0: 10d5 23b4 7c54 5db4 cb77 65b3 ae66 50b4
000000f0: 695c f533 8329 20b3 8fb2 04b5 657d 2fb4
00000100: 5835 f6b3 5d55 2fb4 8657 d3b3 0649 2833
00000110: e515 89b4 c70a 8cb4 78e1 1ab4 c477 37b4
00000120: 273e 4fb4 11c4 abb4 c6a7 49b4 1e62 29b4
00000130: af70 44b2 3d4b 6eb3 01af aab4 fa35 8db4
00000140: 7917 82b4 6f3a a4b3 0822 27b4 2fdb 36b4
00000150: 77ed 81b3 5e1c 3cb4 9dc9 d732 1d26 9bb3
00000160: 6a85 2db4 e8b0 1db4 ed49 94b2 e983 17b3
00000170: 0b7d 6933 d82c 40b2 e317 0cb5 f14c 7ab4
00000180: 07af eab4 1e18 fbb3 0c7e e7b3 4b03 07b4
00000190: e5da da33 103d b233 890f 8533 9b66 a333
000001a0: 3aea ab33 8507 bf33 5358 8633 d5db 8333
000001b0: 5c41 c133 28c8 a433 0e86 f433 8d33 0434
000001c0: d455 e133 f31b a533 007b f533 9c56 a133
000001d0: ebf5 ab33 c99a f333 2d69 5b33 411c dd33
000001e0: 91bd 4333 0f41 c633 4706 b033 1e61 9f33
000001f0: 1fde 5933 29a1 d433 29b6 ec33 73f1 7233
00000200: 88c9 b233 5fbf fb33 3b34 9533 8bed ae33
00000210: cab1 b933 c454 cc33 b205 0834 6497 c333
00000220: 6098 e033 a78c c833 e166 e833 9811 6733
00000230: 291b 9333 96bb 3233 b80b 9f33 ddbb 8833
00000240: 0e29 f632 3e29 f433 2472 a333 a9c3 9a33
00000250: 38a9 8432 4101 8133 4be9 0c34 2ed3 5234
00000260: 737c 8532 9225 e132 400a 0733 df33 85b4
00000270: b4c6 bdb3 8d9a 3f33 e03b 8ab4 e772 b5b3
00000280: 6751 2eb4 bb59 b9b3 8321 1134 f8bb dbb2
00000290: bb3c 4332 f2dd ebb3 dcb6 1db4 48f2 15b4
000002a0: 7a23 df32 193f 02b3 c8e7 90b3 5135 3833
000002b0: a2e1 7fb3 7c33 af33 5ba2 afb3 a9a0 4ab4
000002c0: 612d dab3 70eb 26b4 c958 0933 c4c9 43b4
000002d0: a5dd fe33 f1ff bcb3 8dad bab1 ba13 81b1
000002e0: f16e 0db4 e5eb 0834 2164 0fb4 898d 87b4
000002f0: afd1 e1b3 dafb 1eb4 097c 36b4 121a 73b3
00000300: 3268 beb4 49f3 84b2 416e 84b4 df65 f6b1
00000310: 4601 c4b3 38fd 72b3 2003 bb33 2f0d cab3
00000320: 1d6c 3332 a0c8 9bb4 375b 44b3 a2ad 1ab3
00000330: 2997 12b3 ae6c 4a34 8d25 bf33 b33b e133
00000340: 8bb8 9234 03e5 fb33 1635 4034 38f7 db33
00000350: 9b1e b3b4 8a4e db32 54dc ed33 cdec 4134
00000360: cdd6 8c34 72dc 4d34 b6bc 5634 c59d 0ab4
00000370: ac3a dd33 b423 8b34 82f3 6534 60e5 e933
00000380: 1596 c733 97a2 ca33 23a9 bc34 1851 2e34
00000390: 4e87 23b4 2cfe 3434 5e41 c433 6cc4 0e34
000003a0: 86f9 4b32 27a7 d732 85ee 0b34 7dfd 4034
000003b0: d425 f834 45dd 1434 eeb9 bd33 fe85 9334
000003c0: c087 4b33 5053 6a34 3fdb 1535 7c73 4db3
000003d0: 6ae5 e7b4 5980 2b32 f093 9cb4 2ec3 7e34
000003e0: 1371 e433 38f5 f633 8db0 d232 d1d7 1033
000003f0: 2b33 4d33 8f29 3e32 75e7 c132 3f4e b5b3

exp_avg_sq f4 [128, 50]
4.450932e-10 6.280338e-10 5.39448e-10 4.7927284e-10 6.697459e-10 8.754261e-10 6.054332e-10 6.6140954e-10
8.591233e-10 6.7753353e-10 1.3359354e-09 6.7052697e-10 7.529903e-10 5.275129e-10 9.149105e-10 6.270204e-10
7.546411e-10 6.412786e-10 5.800665e-10 8.407735e-10 6.5911404e-10 9.1630725e-10 7.498235e-10 8.1194185e-10
8.716348e-10 1.0304122e-09 9.921642e-10 7.9191315e-10 5.54214e-10 7.4680645e-10 7.0596856e-10 5.377035e-10
4.5131576e-10 4.131951e-10 3.8863243e-10 5.3889826e-10 5.8875665e-10 5.338757e-10 4.566088e-10 9.304801e-10
9.833311e-10 6.432829e-10 3.7978548e-10 3.3261438e-10 3.9955045e-10 7.696448e-10 5.19654e-10 8.295406e-10
8.155391e-10 6.9254774e-10 2.499304e-10 2.088425e-10 1.8301584e-10 2.1852506e-10 3.8601605e-10 1.0442829e-10
1.394469e-10 1.7717632e-10 2.743314e-10 1.629619e-10 1.1682608e-10 2.6940356e-10 1.2075208e-10 2.173331e-10
1.1832069e-10 4.392406e-10 1.7134763e-10 1.1046983e-10 7.913808e-11 8.375817e-11 1.2249561e-10 1.2395542e-10
9.667783e-11 1.2144924e-10 1.0882993e-10 1.7535262e-10 2.5724034e-10 1.1808053e-10 1.5866108e-10 1.3646154e-10
1.09320386e-10 1.1666829e-10 1.3659261e-10 7.081067e-11 1.899708e-10 1.201217e-10 1.4370072e-10 2.7311695e-10
3.7180362e-10 3.1057742e-10 1.9612403e-10 3.4907688e-10 8.966228e-11 2.840478e-10 1.0317724e-10 8.384726e-11
1.8691902e-10 1.3333504e-10 1.2796994e-10 1.1170934e-10 6.1734523e-10 8.29274e-10 8.557087e-10 8.5688284e-10
9.1912056e-10 1.0248622e-09 7.570164e-10 8.584501e-10 1.0829759e-09 9.143733e-10 1.188503e-09 1.0767721e-09
9.289728e-10 7.5261924e-10 9.318029e-10 1.0818088e-09 8.097944e-10 7.20878e-10 6.1925337e-10 6.246089e-10
8.0567114e-10 8.2400287e-10 8.3509133e-10 9.643188e-10 1.1812438e-09 1.0519621e-09 9.928496e-10 1.0194533e-09
6.7300043e-10 1.009359e-09 7.30367e-10 8.155013e-10 5.848192e-10 4.7685783e-10 4.0583284e-10 4.493009e-10
6.5399275e-10 7.458638e-10 7.0644185e-10 1.0968225e-09 9.955649e-10 7.912935e-10 5.344071e-10 5.8524907e-10
3.5755576e-10 8.4266866e-10 9.2066743e-10 1.0610194e-09 8.0444174e-10 7.420103e-10 2.849231e-10 3.3247016e-10
3.2083014e-10 3.4356612e-10 3.8708411e-10 3.0817907e-10 2.8470146e-10 3.7829778e-10 4.2895185e-10 4.1093726e-10
3.537107e-10 3.583217e-10 2.6810418e-10 2.9418082e-10 3.318206e-10 2.5352423e-10 4.1768708e-10 3.985759e-10
2.8997232e-10 3.070139e-10 3.779685e-10 3.4274883e-10 3.5438782e-10 3.5430833e-10 3.5988748e-10 3.6437914e-10
4.4689663e-10 3.9708395e-10 3.207878e-10 3.752391e-10 3.7103215e-10 4.5005005e-10 3.3297168e-10 2.4131872e-10
2.2204251e-10 2.2879258e-10 4.1501633e-10 3.3907813e-10 2.9439307e-10 4.2117948e-10 3.8612327e-10 2.6088579e-10
3.9379297e-10 2.2529308e-10 2.7045868e-10 3.449357e-10 3.150797e-10 4.0852033e-10 4.0505566e-10 3.2321854e-10
2.654487e-10 4.912764e-10 2.2713856e-10 2.2746557e-10 5.442273e-10 3.8183237e-10 1.1809765e-09 7.9968265e-10
7.6353485e-10 7.430061e-10 7.94944e-10 3.1843087e-10 4.4615137e-10 2.9659653e-10 8.701921e-10 5.5167154e-10
3.33322e-10 2.9148547e-10 2.6631775e-10 2.5483293e-10 2.9666647e-10 5.0608e-10 7.656692e-10 3.9836276e-10
7.284292e-10 1.0256342e-09 5.609972e-10 4.163028e-10 4.931231e-10 5.1663596e-10 4.751226e-10 6.3758526e-10
1.562173e-10 3.1404154e-10 1.4434583e-10 2.8233305e-10 2.2022115e-10 6.2434713e-10 2.0527774e-10 4.5586387e-10
8.559509e-10 2.578247e-10 3.3083858e-10 2.240265e-10 2.7394792e-10 3.256428e-10 4.114098e-10 1.1849699e-09
7.547139e-10 4.2686138e-10 6.958068e-10 4.587809e-10 4.816405e-10 6.9206474e-10 5.185309e-10 4.3779402e-10
00000000: 4db1 f42f f3a1 2c30 4748 1430 d4bd 0330
00000010: 2e19 3830 a3a2 7030 936b 2630 8fce 3530
00000020: 6d27 6c30 2f3d 3a30 0c9c b730 2450 3830
00000030: fbfa 4e30 6c00 1130 1a7d 7b30 a35a 2c30
00000040: 266f 4f30 f845 3030 8d72 1f30 2d1c 6730
00000050: 072d 3530 64df 7b30 231c 4e30 542f 5f30
00000060: d997 6f30 689e 8d30 ad5c 8830 efad 5930
00000070: 5857 1830 d547 4d30 1f0e 4230 85cd 1330
00000080: 0c1d f82f 0a28 e32f 27a7 d52f 9821 1430
00000090: 11d6 2130 2ac0 1230 fa05 fb2f b7c4 7f30
000000a0: e325 8730 03d3 3030 0eca d02f 50db b62f
000000b0: baa7 db2f f08e 5330 66d7 0e30 bb05 6430
000000c0: 762c 6030 b75d 3e30 9466 892f f09f 652f
000000d0: 613a 492f 5645 702f ee36 d42f e7a3 e52e
000000e0: d052 192f b3ce 422f b6d0 962f b22d 332f
000000f0: 9e73 002f 2e1b 942f b0c4 042f d4f5 6e2f
00000100: 5018 022f 9e79 f12f 1266 3c2f fcec f22e
00000110: c706 ae2e a82f b82e 73af 062f 594a 082f
00000120: c898 d42e ec88 052f ce51 ef2e 60cd 402f
00000130: 5c6b 8d2f b7d4 012f 2073 2e2f 820a 162f
00000140: e865 f02e 3447 002f 672f 162f ddb6 9b2e
00000150: 07e0 502f 4113 042f 2800 1e2f cb25 962f
00000160: b566 cc2f e3bd aa2f 02a4 572f 34e8 bf2f
00000170: 602b c52e 2d28 9c2f 9fe3 e22e d061 b82e
00000180: 0785 4d2f 7a9a 122f 56b4 0c2f c5a6 f52e
00000190: cfb1 2930 f8f2 6330 2637 6b30 c589 6b30
000001a0: 5ca5 7c30 22db 8c30 4b16 5030 0ef8 6b30
000001b0: d4d7 9430 4d57 7b30 bb58 a330 8dfd 9330
000001c0: a65a 7f30 dfe0 4e30 e610 8030 c3ae 9430
000001d0: 3798 5e30 4827 4630 1538 2a30 f2b0 2b30
000001e0: 1176 5d30 0c80 6230 548c 6530 f488 8430
000001f0: 5259 a230 a094 9030 ca74 8830 d31c 8c30
00000200: 32fe 3830 aab9 8a30 02c3 4830 cd29 6030
00000210: fec0 2030 e313 0330 e51b df2f 7b01 f72f
00000220: a6c4 3330 8005 4d30 6d2f 4230 03bf 9630
00000230: 53d4 8830 5482 5930 8ee5 1230 3edf 2030
00000240: 8091 c42f 89a1 6730 3612 7d30 4dd3 9130
00000250: 8e1f 5d30 55f6 4b30 5da3 9c2f 04c7 b62f
00000260: d460 b02f a2e0 bc2f 3fcd d42f 596c a92f
00000270: 2b84 9c2f aef8 cf2f 9bd1 eb2f 47ea e12f
00000280: 5b74 c22f 4cfd c42f 4f64 932f 45ba a12f
00000290: 996b b62f 5d60 8b2f 3ba0 e52f 921e db2f
000002a0: fa69 9f2f 5dc8 a82f 56ca cf2f 9c6d bc2f
000002b0: a7d3 c22f 77c8 c22f a9d9 c52f ce51 c82f
000002c0: 1caf f52f 994c da2f df5a b02f 354a ce2f
000002d0: 22fa cb2f ea6a f72f 990d b72f 97aa 842f
000002e0: 6923 742f 638f 7b2f 5b28 e42f 0169 ba2f
000002f0: 24d8 a12f be8b e72f 0546 d42f 696c 8f2f
00000300: 6f7d d82f 5db6 772f adaf 942f 62a1 bd2f
00000310: 8737 ad2f 2096 e02f 84ae de2f f7b0 b12f
00000320: 95ee 912f 810a 0730 d2bd 792f de19 7a2f
00000330: 9798 1530 21ea d12f eb4f a230 aad0 5b30
00000340: fde0 5130 683c 4c30 3683 5a30 290f af2f
00000350: 3946 f52f 400e a32f 5332 6f30 6fa4 1730
00000360: e73e b72f ef3e a02f e468 922f 8c18 8c2f
00000370: 1818 a32f 371c 0b30 2e77 5230 9300 db2f
00000380: a63a 4830 4cf6 8c30 ab34 1a30 69dd e42f
00000390: 748c 0730 0603 0e30 c899 0230 1342 2f30
000003a0: 43c3 2b2f 6ba5 ac2f bdb5 1e2f d836 9b2f
000003b0: be22 722f 869e 2b30 8cb4 612f 239d fa2f
000003c0: 3148 6b30 9abd 8d2f 64e1 b52f db51 762f
000003d0: be9a 962f 2606 b32f c82c e22f 6cdc a230
000003e0: 4574 4f30 66ab ea2f 0d43 3f30 ac37 fc2f
000003f0: 7064 0430 ba3b 3e30 5e88 0e30 08ae f02f

exp_avg f4 [128]
-1.9733206e-07 5.062131e-07 -8.933018e-08 -4.119288e-07 -9.14419e-07 -1.5831107e-08 -1.853595e-07 1.3828294e-07
-3.918456e-07 -3.68499e-07 -1.2617071e-06 -1.164783e-07 -7.8294434e-08 -4.5951032e-07 -2.4390255e-08 1.3250548e-07
8.5235547e-07 -6.8290724e-08 -1.5000033e-07 -1.6890025e-06 -1.4647152e-07 1.8865963e-07 2.671747e-07 3.2265143e-06
-2.3890854e-07 9.8912e-08 -2.1463786e-07 -8.8061773e-07 -7.4596056e-07 1.4663041e-07 1.0326693e-07 -2.61318e-07
-2.4224114e-08 -8.2614726e-08 1.7162355e-07 -4.7687553e-08 -3.79427e-07 4.4911994e-07 -8.2436005e-09 5.46446e-07
-1.7819748e-07 -6.359532e-08 -1.6520183e-07 2.8257492e-07 7.861283e-08 5.076628e-08 3.0494184e-07 -1.6381057e-06
-2.7006575e-07 -7.8592603e-07 4.2233346e-08 2.5864745e-07 -1.3828692e-07 -1.3795986e-06 5.73084e-07 -5.6148576e-07
-4.1340581e-07 6.326904e-07 6.455205e-07 -2.4460982e-07 5.0615334e-08 2.1757384e-07 -9.1029983e-07 7.1032974e-07
4.961327e-08 6.628369e-07 -2.4267155e-07 -1.520398e-07 5.875086e-07 2.204683e-08 5.333509e-07 -4.469311e-07
-1.4995135e-07 -4.0161705e-08 -9.281356e-07 9.575956e-07 -1.0329115e-06 1.6367856e-07 2.9872538e-07 8.426209e-09
-9.4668854e-07 -2.5473165e-07 -9.754917e-07 1.3158969e-07 7.095071e-09 -1.2636509e-06 2.5913675e-07 8.6577757e-07
8.146612e-08 -2.1473731e-07 1.7255402e-07 -2.171593e-07 -6.6654917e-07 4.8118405e-08 1.2557865e-06 -2.7157688e-07
-4.0364048e-07 1.5500429e-07 2.8343201e-09 -6.3508855e-07 1.8205188e-07 -2.3909118e-07 -1.5353885e-06 -5.2530623e-07
4.6982217e-07 -4.4315595e-07 1.3449017e-08 7.9414434e-07 -1.936244e-07 6.9703464e-07 -2.5152784e-07 -1.4864227e-07
-6.8227314e-07 1.8827724e-07 -9.6859424e-08 -3.0727205e-07 -3.6520228e-07 7.3202693e-07 -6.575487e-07 -1.251794e-07
-1.2403986e-08 6.008258e-08 7.7157637e-07 -2.2116004e-07 1.4986677e-08 5.749608e-08 2.3159175e-06 -2.6633523e-07
00000000: 39e2 53b4 b3e2 0735 c9d5 bfb3 1027 ddb4
00000010: 6576 75b5 f9fc 87b2 3b07 47b4 ed7a 1434
00000020: d95e d2b4 1ed6 c5b4 ed57 a9b5 9f22 fab3
00000030: d222 a8b3 9eb2 f6b4 bd82 d1b2 d446 0e34
00000040: 6ccd 6435 39a7 92b3 c70f 21b4 afb1 e2b5
00000050: c945 1db4 5d92 4a34 3670 8f34 1887 5836
00000060: 5743 80b4 7269 d433 3577 66b4 9763 6cb5
00000070: 053e 48b5 7671 1d34 98c3 dd33 464b 8cb4
00000080: 6415 d0b2 ed69 b1b3 8647 3834 05d1 4cb3
00000090: 0db4 cbb4 931e f134 bd9f 0db2 7caf 1235
000000a0: 8d56 3fb4 e691 88b3 5562 31b4 cdb4 9734
000000b0: dcd1 a833 1d0a 5a33 e3b6 a334 e2dc dbb5
000000c0: 8efd 90b4 6df8 52b5 0e64 3533 3cdc 8a34
000000d0: 057c 14b4 a62a b9b5 08d6 1935 02b9 16b5
000000e0: 10f2 ddb4 27d6 2935 d547 2d35 eb52 83b4
000000f0: 2664 5933 3e9e 6934 545b 74b5 7dad 3e35
00000100: 5e16 5533 ceed 3135 8648 82b4 6240 23b4
00000110: 49b5 1d35 7e61 bd32 982b 0f35 bef1 efb4
00000120: 5002 21b4 437e 2cb3 fe24 79b5 bc86 8035
00000130: 92a2 8ab5 9fbf 2f34 8160 a034 dcc2 1032
00000140: f11f 7eb5 0dc2 88b4 a4ed 82b5 194b 0d34
00000150: e8c8 f331 b79a a9b5 7c1f 8b34 c867 6835
00000160: 79f2 ae33 8b92 66b4 4a47 3934 4b2c 69b4
00000170: e9ec 32b5 bfaa 4e33 7f8c a835 3ecd 91b4
00000180: edb3 d8b4 416f 2634 e3c5 4231 f47a 2ab5
00000190: 0a7a 4334 715c 80b4 8c13 ceb5 c502 0db5
000001a0: de3b fc34 e4ea edb4 670d 6732 2f2d 5535
000001b0: 12e7 4fb4 db1b 3b35 b909 87b4 7a9a 1fb4
000001c0: 7425 37b5 4129 4a34 0801 d0b3 26f7 a4b4
000001d0: 0511 c4b4 8280 4435 6782 30b5 0d69 06b4
000001e0: 4f19 55b2 bf06 8133 531e 4f35 0278 6db4
000001f0: 0dbc 8032 9cf1 7633 296b 1b36 d6fc 8eb4

exp_avg_sq f4 [128]
2.2657898e-09 3.3013217e-09 4.3219506e-10 8.397303e-10 5.829364e-10 5.827474e-10 1.2002979e-10 1.1499912e-09
8.8187546e-10 5.4074084e-10 3.85896e-10 8.9102237e-10 1.5715254e-09 8.207149e-10 8.394438e-10 4.192425e-10
3.0152467e-09 1.2720062e-09 2.0945298e-10 9.521677e-09 1.1411662e-09 2.2298424e-10 6.0748245e-10 6.3645145e-10
1.135187e-09 5.864396e-10 3.6328882e-10 1.2466421e-10 2.9321416e-09 9.0686325e-10 1.8852435e-09 3.1212766e-10
1.7123106e-10 3.5219938e-10 7.7135065e-10 3.2596477e-09 1.1965108e-09 2.0275626e-09 1.2807614e-09 8.801297e-10
3.5459033e-10 2.341839e-09 7.64375e-09 8.5972063e-10 1.0259271e-09 4.926017e-09 1.2927148e-09 2.0243238e-09
3.6894168e-09 2.264415e-09 1.2808166e-09 2.0652835e-09 4.869888e-10 7.66286e-10 2.2367608e-09 1.664953e-09
6.7928013e-10 5.605382e-10 8.773511e-10 3.5689935e-09 2.5758679e-10 3.1064362e-10 3.9033413e-10 1.7745458e-09
4.0584325e-10 2.7027012e-09 7.823991e-09 1.7797558e-09 2.0725714e-09 2.4254534e-09 2.9976701e-09 1.6065842e-09
7.3554157e-10 5.7441235e-10 2.302208e-09 5.921924e-10 4.8367506e-09 3.3421976e-10 7.010862e-10 2.069953e-09
2.9695746e-10 2.699478e-09 1.2083837e-09 4.2683626e-09 9.533222e-10 4.960394e-09 1.9500956e-09 3.4259804e-09
5.5772337e-10 6.024015e-10 5.6800836e-10 6.688529e-10 2.3368857e-10 1.5469754e-09 4.40131e-10 2.0212429e-10
3.146038e-10 7.591902e-10 5.130369e-09 2.3483482e-10 4.749171e-10 1.7386081e-10 3.560334e-09 1.1653363e-09
1.3000921e-09 1.0340032e-09 3.2563863e-09 1.4408184e-09 6.5591452e-09 3.6493922e-10 1.3380757e-09 1.3400265e-09
4.4947338e-10 3.5920924e-09 3.2404148e-09 5.534278e-09 1.1877099e-09 1.2950553e-09 2.2312754e-09 2.4778555e-09
9.716067e-10 3.974691e-10 2.5887121e-09 4.1546193e-09 7.825836e-10 3.741792e-09 2.779344e-10 3.9882964e-09
00000000: 32b4 1b31 77dd 6231 0c9a ed2f c4d2 6630
00000010: 813c 2030 342f 2030 62f9 032f b80d 9e30
00000020: 7868 7230 41a3 1430 0926 d42f 20ec 7430
00000030: 22fd d730 ad98 6130 9bbe 6630 237b e62f
00000040: c834 4f31 bdd2 ae30 c64b 662f c794 2332
00000050: 37d7 9c30 7c2c 752f c7fb 2630 4af2 2e30
00000060: d804 9c30 0533 2130 5bb8 c72f db11 092f
00000070: c87e 4931 d446 7930 8e8d 0131 1098 ab2f
00000080: 4245 3c2f a89f c12f fa06 5430 5400 6031
00000090: 7b72 a430 4255 0b31 c906 b030 9fed 7130
000000a0: 27f0 c22f 11ee 2031 9151 0332 7651 6c30
000000b0: 9a00 8d30 b441 a931 5cab b130 481c 0b31
000000c0: e888 7d31 039c 1b31 ba08 b030 daec 0d31
000000d0: cadc 0530 95a2 5230 83b5 1931 53d4 e430
000000e0: 17b8 3a30 5f14 1a30 182a 7130 6642 7531
000000f0: 1e9c 8d2f 34c7 aa2f a596 d62f 48e4 f330
00000100: 5c1d df2f 6cba 3931 476a 0632 979b f430
00000110: 106d 0e31 07ad 2631 92ff 4d31 a8ce dc30
00000120: 232f 4a30 ade4 1d30 df34 1e31 d6c7 2230
00000130: 8230 a631 40bd b72f 8eb6 4030 003f 0e31
00000140: 0c41 a32f b881 3931 3914 a630 eaa8 9231
00000150: 0b06 8330 1670 aa31 7202 0631 7c6e 6b31
00000160: 4b4e 1930 3d96 2530 0922 1c30 57da 3730
00000170: be78 802f 5c9d d430 eef6 f12f ee3c 5e2f
00000180: 8cf4 ac2f 43af 5030 3447 b031 101a 812f
00000190: 528b 0230 7829 3f2f 0faa 7431 a029 a030
000001a0: edae b230 c11c 8e30 f4c6 5f31 4a06 c630
000001b0: da5e e131 a1a0 c82f 5ae7 b730 fe2b b830
000001c0: c119 f72f c2d8 7631 fbad 5e31 0628 be31
000001d0: d43c a330 b5fd b130 0355 1931 e546 2a31
000001e0: 5f89 8530 ce82 da2f 1be5 3131 6bc0 8e31
000001f0: 6d1d 5730 2791 8031 cacb 982f 6d09 8931

exp_avg f4 [50, 128]
-9.331492e-07 -2.6085893e-06 1.9955826e-07 1.6941353e-06 -6.4998096e-07 2.368133e-06 -3.2748803e-06 2.6987302e-06
-4.6725763e-06 -9.616667e-08 -3.6464423e-06 4.3561836e-06 -9.1691675e-07 -5.7112597e-06 5.007644e-07 -1.3784721e-06
-2.1474132e-06 -2.7988547e-06 -1.8992075e-06 -5.453521e-06 1.4710817e-07 3.5331807e-06 -9.3611146e-07 2.5306142e-07
-3.874046e-06 4.607046e-07 3.0387832e-06 1.0620889e-06 -4.091993e-07 -3.2241128e-06 1.0756906e-06 3.3461993e-07
-1.4077253e-06 2.7269266e-07 1.5318298e-06 -1.1420392e-06 1.4351285e-07 -4.090631e-07 -3.2854812e-06 4.0257914e-06
-4.836682e-07 -5.865563e-07 -2.277437e-06 -3.2510852e-06 -1.4554203e-06 -4.2951233e-06 -1.969866e-06 -8.5572964e-07
-1.2049699e-06 1.5326624e-06 3.4816753e-06 -2.328455e-06 -8.827571e-07 1.3442875e-06 1.0501413e-06 1.4544604e-06
4.560986e-07 -4.98079e-07 -4.7735637e-07 3.7150853e-06 3.823744e-06 -2.640897e-06 -2.1814565e-06 -6.0177405e-07
-3.2256267e-07 2.26338e-06 -4.849435e-07 -5.3689137e-06 4.60228e-07 3.707042e-06 1.8900035e-06 -2.2830152e-06
-7.3598676e-07 2.888784e-06 2.9996536e-06 5.0236156e-07 -1.6315321e-06 -1.0715636e-06 2.299262e-06 2.4891451e-06
-1.767546e-06 -2.0621471e-06 -1.6317417e-06 -4.6237105e-06 -2.7763792e-07 2.953568e-06 3.385573e-06 -2.1547964e-06
-2.47512e-07 -1.5529705e-06 1.7182879e-06 2.2973516e-06 -1.1671055e-07 -3.0724736e-06 1.8982812e-06 -2.3866958e-06
-3.0828046e-06 -9.722928e-07 -3.3879687e-06 -6.2379735e-07 -4.2629385e-06 -7.932737e-07 -5.8415355e-07 1.6176791e-06
2.7017409e-06 1.2266579e-06 3.2046884e-07 1.6314295e-06 -2.0765317e-06 6.5561926e-07 -1.0966862e-06 -3.4559291e-06
1.6347858e-06 -8.7382756e-07 -3.6987294e-06 2.4314982e-06 4.3704628e-07 -3.5982296e-06 -1.909809e-06 1.4302455e-07
1.6692727e-06 3.9033e-06 1.9652934e-08 -1.6227233e-06 -1.3817985e-06 -1.7949849e-06 -3.3902809e-06 -2.863127e-06
-4.402727e-06 -2.8675722e-06 1.2119633e-06 4.5563365e-06 -5.634039e-07 3.1910533e-06 -1.523471e-06 3.4596192e-06
-1.4571675e-06 -5.640101e-08 -3.2372998e-06 3.8125227e-06 -2.8949867e-06 -4.790044e-06 3.0194205e-06 -4.749495e-06
-1.0711943e-06 -1.1936386e-06 -1.7254232e-06 -5.875545e-06 2.2412949e-06 4.777775e-06 -2.0192283e-07 5.887538e-07
-3.2535504e-06 -1.9543497e-06 4.963643e-06 6.92007e-07 1.5542826e-06 -5.135567e-06 -2.8634767e-07 3.1978554e-06
-3.9298898e-06 -5.251972e-07 -2.9089023e-07 -3.9964893e-06 -8.990115e-07 -8.395423e-07 -1.3937807e-06 -8.399499e-08
-5.3832728e-06 1.8588026e-06 -1.8166356e-06 -3.3304023e-06 -1.0387298e-06 -2.1695016e-06 -2.6985472e-06 -1.8385207e-06
1.7668276e-06 2.4052647e-06 5.1988573e-06 -1.6910726e-06 -1.7145511e-06 -3.4892732e-06 1.7914696e-06 -4.927254e-07
-1.9748434e-07 -2.7036026e-06 -3.1120353e-06 1.02985e-05 4.200833e-06 -5.995643e-07 2.611024e-06 3.2154248e-06
2.2254317e-06 -3.6089787e-08 1.5822079e-06 -3.260637e-06 2.8428923e-07 1.6854522e-06 -8.573471e-07 -1.2912866e-06
-2.7529622e-06 4.9892055e-06 1.0824319e-06 -1.2076698e-07 -2.1624453e-06 1.904806e-06 2.4128403e-06 2.532246e-06
-4.551849e-06 5.885148e-07 -2.2507843e-06 -5.4865563e-06 -2.355348e-06 3.544684e-07 1.7814318e-07 -3.1332183e-07
-1.2217872e-06 -1.026179e-06 8.345996e-07 2.3428079e-06 -4.0907685e-06 -3.8616354e-06 7.520509e-08 -4.566945e-06
-2.4677906e-06 -9.238723e-07 -2.4057003e-06 -1.6466499e-06 -2.0796456e-06 -3.8116336e-06 -3.152411e-07 -9.081425e-07
6.6410877e-07 -1.8846155e-06 -2.176391e-06 4.6802634e-07 -4.1527947e-08 -9.1407094e-07 3.9537717e-06 -2.4333578e-06
8.9012866e-07 2.3360052e-07 -3.8830103e-06 6.8932223e-07 -1.5436171e-06 -1.6856181e-06 1.2709443e-06 4.4338385e-06
5.731332e-06 9.518118e-07 2.4048024e-06 -2.4121384e-06 -3.4691545e-06 -1.8851292e-06 -3.2305908e-07 -1.2424912e-06
00000000: 867d 7ab5 390f 2fb6 2846 5634 0c62 e335
00000010: 5a7a 2eb5 37ec 1e36 04c6 5bb6 d51b 3536
00000020: 20c9 9cb6 3084 ceb3 67b5 74b6 552b 9236
00000030: 0a22 76b5 59a3 bfb6 446c 0635 f103 b9b5
00000040: 471c 10b6 f5d3 3bb6 46e8 feb5 64fd b6b6
00000050: c9f4 1d34 951b 6d36 1749 7bb5 7fdc 8734
00000060: cdfd 81b6 c256 f734 e6ed 4b36 198d 8e35
00000070: ecaf dbb4 d65d 58b6 7360 9035 d0a5 b334
00000080: 13f1 bcb5 9866 9234 4599 cd35 2b48 99b5
00000090: 8318 1a34 349d dbb4 237c 5cb6 4915 8736
000000a0: 6dd5 01b5 d873 1db5 12d6 18b6 382d 5ab6
000000b0: dc57 c3b5 d41e 90b6 0a32 04b6 4bb5 65b5
000000c0: 73ba a1b5 e1b5 cd35 baa6 6936 8d42 1cb6
000000d0: 9bf6 6cb5 5e6d b435 95f2 8c35 e136 c335
000000e0: b7dd f434 bab3 05b5 ae23 00b5 ae50 7936
000000f0: b64d 8036 443a 31b6 2365 12b6 9989 21b5
00000100: ad2c adb4 93e4 1736 102d 02b5 9e26 b4b6
00000110: 4115 f734 7fc6 7836 07ac fd35 e735 19b6
00000120: a090 45b5 eedc 4136 a84d 4936 06da 0635
00000130: 04fb dab5 a5d2 8fb5 054d 1a36 300b 2736
00000140: 6b3c edb5 6b63 0ab6 3802 dbb5 5f25 9bb6
00000150: 440e 95b4 e935 4636 b433 6336 1f9b 10b6
00000160: cae1 84b4 a96f d0b5 ec9f e635 332c 1a36
00000170: 4ea2 fab3 b230 4eb6 72c8 fe35 1f2b 20b6
00000180: 2ee2 4eb6 ba7f 82b5 dc5c 63b6 0773 27b5
00000190: 5d0a 8fb6 5bf1 54b5 bace 1cb5 081f d935
000001a0: 8e4f 3536 a5a3 a435 e70c ac34 7ef7 da35
000001b0: 8b5a 0bb6 d0fd 2f35 da31 93b5 69ec 67b6
000001c0: d06a db35 f990 6ab5 b037 78b6 d22c 2336
000001d0: 2fa3 ea34 1d79 71b6 452a 00b6 4a92 1934
000001e0: c60b e035 17f9 8236 42d1 a832 59cc d9b5
000001f0: 3c76 b9b5 36eb f0b5 9584 63b6 2624 40b6
00000200: 23bb 93b6 8470 40b6 beaa a235 a2e2 9836
00000210: d23c 17b5 e125 5636 117a ccb5 ce2b 6836
00000220: e593 c3b5 913d 72b3 6340 59b6 a4da 7f36
00000230: 7e47 42b6 2aba a0b6 40a1 4a36 da5d 9fb6
00000240: f5c5 8fb5 1c35 a0b5 1795 e7b5 8c26 c5b6
00000250: 2769 1636 c650 a036 20d0 58b4 da0a 1e35
00000260: 9257 5ab6 7927 03b6 5e8d a636 5cc2 3935
00000270: be9c d035 2f52 acb6 53bb 99b4 bd9a 5636
00000280: 7fdd 83b6 47fb 0cb5 a62b 9cb4 9519 86b6
00000290: 9a53 71b5 e85c 61b5 f111 bbb5 bc60 b4b3
000002a0: f6a1 b4b6 f97b f935 20d3 f3b5 e07f 5fb6
000002b0: 7c6a 8bb5 c197 11b6 b018 35b6 17c3 f6b5
000002c0: bc23 ed35 226a 2136 d871 ae36 d0f8 e2b5
000002d0: 871f e6b5 4229 6ab6 6d72 f035 d543 04b5
000002e0: 150c 54b4 8a6f 35b6 5cd8 50b6 b8c7 2c37
000002f0: e1f4 8c36 bff1 20b5 0d39 2f36 94c8 5736
00000300: a058 1536 2401 1bb3 405c d435 51d1 5ab6
00000310: 6aa0 9834 b237 e235 7224 66b5 4550 adb5
00000320: 88bf 38b6 f368 a736 1448 9135 2dac 01b4
00000330: 871e 11b6 a3a8 ff35 48ec 2136 a8ef 2936
00000340: 16bc 98b6 6efa 1d35 2e0c 17b6 2919 b8b6
00000350: 9210 1eb6 c44d be34 a047 3f34 a036 a8b4
00000360: 4afc a3b5 3ebb 89b5 3f09 6035 2239 1d36
00000370: 6f43 89b6 3293 81b6 6f80 a133 c23d 99b6
00000380: 529c 25b6 0500 78b5 9e71 21b6 7602 ddb5
00000390: 0a90 0bb6 5ecb 7fb6 683e a9b4 14c7 73b5
000003a0: 3545 3235 e5f2 fcb5 1d0e 12b6 0d45 fb34
000003b0: 765c 32b3 7a5e 75b5 a4aa 8436 c54c 23b6
000003c0: 2df1 6e35 9fd3 7a34 ce4a 82b6 dd09 3935
000003d0: 482e cfb5 663d e2b5 5095 aa35 62c6 9436
000003e0: c44f c036 0280 7f35 3162 2136 39e0 21b6
000003f0: 9fcf 68b6 8c04 fdb5 e770 adb4 acc3 a6b5
